ml/tflite_model_12-02-23-354am.tflite (tflite, 278512 bytes, 9 tensors)

model/lstm_1/TensorArrayV2_1 f4 [1, 1, 128]
00000000: 0000 0000 0000 0000 0000 0000 0000 0000
00000010: 0000 0000 0000 0000 0000 0000 0000 0000
00000020: 0000 0000 0000 0000 0000 0000 0000 0000
00000030: 0000 0000 0000 0000 0000 0000 0000 0000
00000040: 0000 0000 0000 0000 0000 0000 0000 0000
00000050: 0000 0000 0000 0000 0000 0000 0000 0000
00000060: 0000 0000 0000 0000 0000 0000 0000 0000
00000070: 0000 0000 0000 0000 0000 0000 0000 0000
00000080: 0000 0000 0000 0000 0000 0000 0000 0000
00000090: 0000 0000 0000 0000 0000 0000 0000 0000
000000a0: 0000 0000 0000 0000 0000 0000 0000 0000
000000b0: 0000 0000 0000 0000 0000 0000 0000 0000
000000c0: 0000 0000 0000 0000 0000 0000 0000 0000
000000d0: 0000 0000 0000 0000 0000 0000 0000 0000
000000e0: 0000 0000 0000 0000 0000 0000 0000 0000
000000f0: 0000 0000 0000 0000 0000 0000 0000 0000
00000100: 0000 0000 0000 0000 0000 0000 0000 0000
00000110: 0000 0000 0000 0000 0000 0000 0000 0000
00000120: 0000 0000 0000 0000 0000 0000 0000 0000
00000130: 0000 0000 0000 0000 0000 0000 0000 0000
00000140: 0000 0000 0000 0000 0000 0000 0000 0000
00000150: 0000 0000 0000 0000 0000 0000 0000 0000
00000160: 0000 0000 0000 0000 0000 0000 0000 0000
00000170: 0000 0000 0000 0000 0000 0000 0000 0000
00000180: 0000 0000 0000 0000 0000 0000 0000 0000
00000190: 0000 0000 0000 0000 0000 0000 0000 0000
000001a0: 0000 0000 0000 0000 0000 0000 0000 0000
000001b0: 0000 0000 0000 0000 0000 0000 0000 0000
000001c0: 0000 0000 0000 0000 0000 0000 0000 0000
000001d0: 0000 0000 0000 0000 0000 0000 0000 0000
000001e0: 0000 0000 0000 0000 0000 0000 0000 0000
000001f0: 0000 0000 0000 0000 0000 0000 0000 0000
0.0 0.0 0.0 0.0 0.0 0.0 0.0 0.0
0.0 0.0 0.0 0.0 0.0 0.0 0.0 0.0
0.0 0.0 0.0 0.0 0.0 0.0 0.0 0.0
0.0 0.0 0.0 0.0 0.0 0.0 0.0 0.0
0.0 0.0 0.0 0.0 0.0 0.0 0.0 0.0
0.0 0.0 0.0 0.0 0.0 0.0 0.0 0.0
0.0 0.0 0.0 0.0 0.0 0.0 0.0 0.0
0.0 0.0 0.0 0.0 0.0 0.0 0.0 0.0
0.0 0.0 0.0 0.0 0.0 0.0 0.0 0.0
0.0 0.0 0.0 0.0 0.0 0.0 0.0 0.0
0.0 0.0 0.0 0.0 0.0 0.0 0.0 0.0
0.0 0.0 0.0 0.0 0.0 0.0 0.0 0.0
0.0 0.0 0.0 0.0 0.0 0.0 0.0 0.0
0.0 0.0 0.0 0.0 0.0 0.0 0.0 0.0
0.0 0.0 0.0 0.0 0.0 0.0 0.0 0.0
0.0 0.0 0.0 0.0 0.0 0.0 0.0 0.0

model/output/BiasAdd/ReadVariableOp f4 [50]
00000000: c4fe e03c c662 0c3d 3f90 9d3d 84f3 b73d
00000010: 354a 213e 2260 01bd c729 82bd a247 37be
00000020: 3cd7 743c 9bb9 b53d 9bf5 38bd 249a 8a3a
00000030: 0823 28bd 5c48 873d 4bcc 24bc d85f 55bc
00000040: 76e4 743d 75ce 8fbd 95a3 6f3d e1c0 b4bb
00000050: 28b2 9abc abaa 6dbd c452 843d 5f38 d6bd
00000060: ad10 143e bbec 48bd eaed 993d 35e5 b0bc
00000070: 5ad7 4ebd 2b55 333d 9d43 ec3d 0455 cbbd
00000080: ef7a b13c 465f 68bd a423 7ebc a4e4 3dbe
00000090: 85c6 12bd b0bc a7bc b3e4 e9bd bd57 ea3b
000000a0: c7cf 0abd f28a 0bbd 2980 f13c bdc1 33bc
000000b0: 45a3 7f3d 6da7 52bb dd0f 9fbc 7134 b83b
000000c0: 12e8 dabc 097d 8bbd
0.027465232 0.034273885 0.076935284 0.08981994 0.15750964 -0.03158582 -0.06355625 -0.1789842
0.014943894 0.08873292 -0.045156103 0.0010574502 -0.041049033 0.06605598 -0.010058473 -0.013023339
0.05978819 -0.070218004 0.058505613 -0.005516157 -0.01888378 -0.05802409 0.06461099 -0.10459971
0.14459486 -0.04905389 0.07516082 -0.02159367 -0.050498344 0.043782394 0.11536334 -0.09928325
0.021665065 -0.056731485 -0.015511427 -0.1854425 -0.035833854 -0.020475715 -0.11420574 0.0071515725
-0.03388956 -0.034068055 0.029480057 -0.010971484 0.062411565 -0.003214325 -0.019416744 0.005621486
-0.026721988 -0.06810958

model/dense_2/BiasAdd/ReadVariableOp f4 [256]
00000000: dafc 3a3d 4c2e 5fbc 93a2 b9bb 6f51 a0bb
00000010: 551b 133c 78ee 60bc fc0c d63b 8525 a23d
00000020: 7ec5 f53c 7aa8 cbbc 296c c33c 2012 48bc
00000030: 8851 0cbd 0d4b a73c 3ca4 6a3d e703 b53c
00000040: cac3 04bd db95 5a3d d645 b0bc 70e4 df3c
00000050: 7c09 02bc 46fd 083d 7de8 85bc 5db4 31bc
00000060: baa1 1d3d 856f cf3d d1fe b83c 6165 953c
00000070: d128 4b3d b6dc 323d 36ed 893c eed0 803c
00000080: 7d07 7c3a adf5 59bc 5de5 1b3d 1423 f1bc
00000090: b3b8 24bc 984b a3bd dd66 57bd df66 613d
000000a0: a282 103c eb1a 273d aa6e 533b 70d2 f5bc
000000b0: f603 2f3b 1d45 3e3d 5236 aa3c 342a 863d
000000c0: 9696 533c d799 a8ba c233 223d cd79 f03b
000000d0: 175f a43c 13c5 073c 2d19 563d 5d20 493d
000000e0: 26b6 343d 69ab 97bc d610 353b 0ce7 4b3c
000000f0: eb14 1abd 6b14 dfbc f643 943d 007c e63b
00000100: b70d 273b af00 0e3d 7135 66bd ad60 b3bc
00000110: 79e7 7c3b 00b7 843c 4449 03bd e8c5 8f3d
00000120: 41b7 73bc c8f4 2abd 9021 533d c55c e6ba
00000130: 2fad 93bc a55c 2ebd 977b f73b 184d fa3c
00000140: 4fd0 303c b809 bd37 90ac 3d3d ca0e 86bd
00000150: 5fd4 033d 8388 f4ba 81a9 fabb 9ef0 8f3b
00000160: 0ecf 20bd 1930 a43d 0f90 e9ba 3b13 3bbd
00000170: 6638 4ebc a717 39bd 2aea 15bd d224 923c
00000180: 0218 5e3c 57a8 b0bb 8cf6 a7bc a67c d13d
00000190: 2d30 843b 1a86 54bd ac9e 863c d090 28bd
000001a0: 9cb5 8f3b a6c3 853c 3e08 32bc d93c ebbc
000001b0: 3250 383d c8ed 643d 782a 32bd 1bc9 11bd
000001c0: d083 d43d d461 ad3a a0a3 193d 7c96 413b
000001d0: 76a3 d73c d2f9 dd3c 8865 f93c a8b4 13bb
000001e0: 0a01 9739 7b12 febb 5edb 023d 2603 103b
000001f0: 74a0 39bd dde8 0dbd 4084 adbb d660 e93b
00000200: 623d 323c d969 463d d548 14bd 0e88 1e3c
00000210: a9f5 e9ba f4ef 0c3c 7b54 de3b 4a68 e23d
00000220: 1b9e cdbc c48a abbb 0dfc 3d3d 0daf 51bb
00000230: 5c3a ac3c 54d1 753d 2091 e3bc b619 303d
00000240: 2159 413c cb05 843d 3cc6 823c 7219 683b
00000250: f8ff 383d 847e 1f3d 5235 bb3c c324 233d
00000260: ea0c 36bc 001a cf3a e324 fd3c a686 b03c
00000270: a93e ed3c 81b7 113a b267 9e3c da92 29bc
00000280: 075e 523c cba7 933c 2299 923d 76eb 8cbb
00000290: 00fc 023c 4da7 febb 2870 9ebb e1ca 82bb
000002a0: 0408 533d 1a5d 45bd 4320 4f3c 03d1 67bb
000002b0: 7358 633c d2a7 9c3d c64e 51bc 20cf b4ba
000002c0: f900 0dbd 9eb3 843c 8564 8f3b 7e37 17bc
000002d0: 722d d5bc 2c27 a8bb 70a1 de3c a29c f03c
000002e0: a412 103d b538 123d 6ab8 193c d485 de3c
000002f0: 04aa d7bb d6e0 513c 4b6a afbb 17ae 8b3c
00000300: 65b7 b7bb a2df 163d 7a7e 9d3b d3c8 c93c
00000310: 324e d93c a798 0dbc 1043 8a3b bba5 dbbb
00000320: f512 8c3c f052 843c 914d 2c3d 28e8 803c
00000330: ea05 bc3c dad0 333d a366 08bd 68c3 93bd
00000340: 8909 44bc f326 743d b635 5d3b 1c08 383d
00000350: 2a77 e13c 11cf 99bb 57ef 1ebd 8e53 e23c
00000360: 3a72 d23b b468 2c3d 9451 463d 7efa 46ba
00000370: 8421 1d3c f74c d5ba 22e8 e6bc 05a2 803c
00000380: 5d65 10bd f30d 403d ed9a 60bc f727 313d
00000390: 83a2 ca3c cb3c 98bc 2e64 533c 0be0 003d
000003a0: ab07 6a3b 2cc8 aeba f9c5 273c 0f32 a53d
000003b0: 2776 9c3d f286 433d d483 b13b 2bd8 a1bc
000003c0: 496d 95bc eba5 d03c dcfa 0fbb fb5f 24bd
000003d0: d25a 83bc 25ae b5bc 9cb5 703d e9e9 863d
000003e0: 99df 053d 0c5d 473d eb7f ffbc 9ad4 e73c
000003f0: fae4 df3c 62c3 d03c 19e6 2f3d 2141 25bc
0.045651294 -0.013621878 -0.0056651323 -0.00489252 0.008978684 -0.01372873 0.0065323096 0.079173125
0.030001398 -0.02486061 0.023855286 -0.012211353 -0.03425744 0.02042153 0.057285532 0.022096587
-0.03241328 0.05336557 -0.021517675 0.027330607 -0.007936832 0.033444665 -0.01634621 -0.010846225
0.038484313 0.101286925 0.022582443 0.018236818 0.049599472 0.043667518 0.016836744 0.015724625
0.0009614153 -0.013303203 0.038060535 -0.029435672 -0.010053801 -0.07973403 -0.052588332 0.055029746
0.008820208 0.040797155 0.0032262006 -0.030007571 0.0026705242 0.04645263 0.020777855 0.06551018
0.01291432 -0.0012863231 0.03960014 0.0073387385 0.020064874 0.008286732 0.052270103 0.04910313
0.044119023 -0.018514352 0.0027628443 0.012445223 -0.037617605 -0.027231416 0.07239525 0.007033825
0.0025490352 0.03466862 -0.05620331 -0.021896685 0.0038590117 0.016200542 -0.032052293 0.070201695
-0.014875234 -0.041737348 0.05154568 -0.0017575255 -0.018026916 -0.04256882 0.007552575 0.03055434
0.010791852 2.2535081e-05 0.046307147 -0.065457895 0.032184955 -0.0018656406 -0.007649601 0.0043926975
-0.039259963 0.080169864 -0.0017819422 -0.045672636 -0.012586689 -0.045188572 -0.03660027 0.017839823
0.013555529 -0.0053911614 -0.020503305 0.10228853 0.0040340633 -0.0518857 0.016433083 -0.04115373
0.004385663 0.016328644 -0.010866223 -0.028715538 0.044998355 0.05589083 -0.043497533 -0.03559218
0.10376704 0.0013228008 0.03750956 0.0029539159 0.026323061 0.027096663 0.030443922 -0.00225381
0.00028801739 -0.007753668 0.031947486 0.0021974533 -0.045319036 -0.034645904 -0.0052953064 0.0071221394
0.010878893 0.048440788 -0.03620227 0.009675993 -0.0017849702 0.008602131 0.006784973 0.11055048
-0.025099805 -0.005235048 0.046382952 -0.0031995208 0.021023922 0.060014084 -0.027779162 0.04299327
0.011801035 0.064464174 0.015963666 0.0035415557 0.045165986 0.038939014 0.022852574 0.03982998
-0.011111477 0.0015800595 0.030901378 0.02154858 0.028960543 0.0005558655 0.019336555 -0.010349954
0.012839801 0.018024346 0.07158114 -0.00430053 0.007994652 -0.0077714087 -0.0048351474 -0.00399147
0.051521316 -0.04818449 0.012641969 -0.0035372383 0.013876068 0.07649197 -0.012775129 -0.0013794638
-0.034424756 0.01619893 0.0043759965 -0.009229539 -0.026022647 -0.005131623 0.027176589 0.029371563
0.035174027 0.03569861 0.009382347 0.027163424 -0.0065815467 0.012809953 -0.0053532473 0.017050786
-0.005606579 0.036834367 0.004806337 0.024631893 0.026526544 -0.008642352 0.0042194203 -0.006703106
0.017098883 0.016152829 0.04206616 0.0157357 0.022952039 0.04390035 -0.033301007 -0.07215005
-0.011965164 0.059607457 0.0033753938 0.04492961 0.027522642 -0.0046938737 -0.03880247 0.027627733
0.0064223083 0.04209204 0.048417643 -0.0007590427 0.00959051 -0.0016273548 -0.028186861 0.015702257
-0.035252918 0.046888303 -0.013708812 0.043251004 0.024735695 -0.018583676 0.012902303 0.031463664
0.0035710137 -0.0013334802 0.010240071 0.080661885 0.07639723 0.047736116 0.0054173265 -0.019756397
-0.018240588 0.02546974 -0.0021969592 -0.040130597 -0.016034517 -0.022177765 0.058766946 0.065875836
0.032683942 0.04867272 -0.031188926 0.028299619 0.027330864 0.02548379 0.042944048 -0.010086329

model/lstm_1/zeros f4 [1, 128]
00000000: 0000 0000 0000 0000 0000 0000 0000 0000
00000010: 0000 0000 0000 0000 0000 0000 0000 0000
00000020: 0000 0000 0000 0000 0000 0000 0000 0000
00000030: 0000 0000 0000 0000 0000 0000 0000 0000
00000040: 0000 0000 0000 0000 0000 0000 0000 0000
00000050: 0000 0000 0000 0000 0000 0000 0000 0000
00000060: 0000 0000 0000 0000 0000 0000 0000 0000
00000070: 0000 0000 0000 0000 0000 0000 0000 0000
00000080: 0000 0000 0000 0000 0000 0000 0000 0000
00000090: 0000 0000 0000 0000 0000 0000 0000 0000
000000a0: 0000 0000 0000 0000 0000 0000 0000 0000
000000b0: 0000 0000 0000 0000 0000 0000 0000 0000
000000c0: 0000 0000 0000 0000 0000 0000 0000 0000
000000d0: 0000 0000 0000 0000 0000 0000 0000 0000
000000e0: 0000 0000 0000 0000 0000 0000 0000 0000
000000f0: 0000 0000 0000 0000 0000 0000 0000 0000
00000100: 0000 0000 0000 0000 0000 0000 0000 0000
00000110: 0000 0000 0000 0000 0000 0000 0000 0000
00000120: 0000 0000 0000 0000 0000 0000 0000 0000
00000130: 0000 0000 0000 0000 0000 0000 0000 0000
00000140: 0000 0000 0000 0000 0000 0000 0000 0000
00000150: 0000 0000 0000 0000 0000 0000 0000 0000
00000160: 0000 0000 0000 0000 0000 0000 0000 0000
00000170: 0000 0000 0000 0000 0000 0000 0000 0000
00000180: 0000 0000 0000 0000 0000 0000 0000 0000
00000190: 0000 0000 0000 0000 0000 0000 0000 0000
000001a0: 0000 0000 0000 0000 0000 0000 0000 0000
000001b0: 0000 0000 0000 0000 0000 0000 0000 0000
000001c0: 0000 0000 0000 0000 0000 0000 0000 0000
000001d0: 0000 0000 0000 0000 0000 0000 0000 0000
000001e0: 0000 0000 0000 0000 0000 0000 0000 0000
000001f0: 0000 0000 0000 0000 0000 0000 0000 0000
0.0 0.0 0.0 0.0 0.0 0.0 0.0 0.0
0.0 0.0 0.0 0.0 0.0 0.0 0.0 0.0
0.0 0.0 0.0 0.0 0.0 0.0 0.0 0.0
0.0 0.0 0.0 0.0 0.0 0.0 0.0 0.0
0.0 0.0 0.0 0.0 0.0 0.0 0.0 0.0
0.0 0.0 0.0 0.0 0.0 0.0 0.0 0.0
0.0 0.0 0.0 0.0 0.0 0.0 0.0 0.0
0.0 0.0 0.0 0.0 0.0 0.0 0.0 0.0
0.0 0.0 0.0 0.0 0.0 0.0 0.0 0.0
0.0 0.0 0.0 0.0 0.0 0.0 0.0 0.0
0.0 0.0 0.0 0.0 0.0 0.0 0.0 0.0
0.0 0.0 0.0 0.0 0.0 0.0 0.0 0.0
0.0 0.0 0.0 0.0 0.0 0.0 0.0 0.0
0.0 0.0 0.0 0.0 0.0 0.0 0.0 0.0
0.0 0.0 0.0 0.0 0.0 0.0 0.0 0.0
0.0 0.0 0.0 0.0 0.0 0.0 0.0 0.0

model/dense_2/MatMul i1 [256, 384] scale=0.0033545687 zero_point=0
00000000: 0609 08f0 0b15 09f0 060c 0f06 2cf4 13f5
00000010: 1b08 0104 0ee7 08e3 fbdb fefc 1d0d 12f0
00000020: 130f ccef faf0 efe6 0705 0c1d e606 eb09
00000030: f5f3 fffc fbe6 f410 f602 eff7 29ef fe28
00000040: ed06 14f1 000a 07ff 10f1 24df 240b f80f
00000050: 1508 0803 fc01 081f 0a24 f11e e5f6 e7d1
00000060: 0406 ea19 f8ea 1af1 f20a fdd7 1c19 0afd
00000070: f7f8 faef e218 ef1b 0eeb fb22 f70e f910
00000080: 2303 0312 0428 14f8 00f4 21fb 2817 e902
00000090: 1ff7 ef02 0efa e3d7 11d3 e4ff f8ff bbf4
000000a0: f9fc d4f6 161c d7f7 1516 1df3 eb0b f614
000000b0: 04fb 1f11 faf3 f910 ccdb dedd f922 f11b
000000c0: dd04 e815 2a0f ffef 3dff 19e0 07f0 0607
000000d0: 33f5 0dee 1df3 f70b 2148 f01a 0c06 23ed
000000e0: 08f0 e728 09ec fb26 ecdc f7ce 381a fbff
000000f0: 06ff efc8 040c 1bf9 0303 f016 03fd fdf9
0.020127412 0.030191118 0.02683655 -0.0536731 0.036900256 0.07044594 0.030191118 -0.0536731
0.020127412 0.040254824 0.05031853 0.020127412 0.14760102 -0.040254824 0.063736804 -0.036900256
0.090573356 0.02683655 0.0033545687 0.013418275 0.046963964 -0.08386422 0.02683655 -0.09728249
-0.016772844 -0.12411904 -0.0067091375 -0.013418275 0.09728249 0.043609392 0.060382236 -0.0536731
0.063736804 0.05031853 -0.17443757 -0.057027668 -0.020127412 -0.0536731 -0.057027668 -0.087218784
0.023481982 0.016772844 0.040254824 0.09728249 -0.087218784 0.020127412 -0.07044594 0.030191118
-0.036900256 -0.043609392 -0.0033545687 -0.013418275 -0.016772844 -0.087218784 -0.040254824 0.0536731
-0.033545688 0.0067091375 -0.057027668 -0.030191118 0.13753732 -0.057027668 -0.0067091375 0.13418275
-0.063736804 0.020127412 0.067091376 -0.05031853 0.0 0.033545688 0.023481982 -0.0033545687
0.0536731 -0.05031853 0.12076447 -0.11070077 0.12076447 0.036900256 -0.02683655 0.05031853
0.07044594 0.02683655 0.02683655 0.010063706 -0.013418275 0.0033545687 0.02683655 0.10399163
0.033545688 0.12076447 -0.05031853 0.10063706 -0.090573356 -0.033545688 -0.08386422 -0.15766473
0.013418275 0.020127412 -0.07380051 0.08386422 -0.02683655 -0.07380051 0.087218784 -0.05031853
-0.046963964 0.033545688 -0.010063706 -0.13753732 0.09392793 0.08386422 0.033545688 -0.010063706
-0.030191118 -0.02683655 -0.020127412 -0.057027668 -0.10063706 0.08050965 -0.057027668 0.090573356
0.046963964 -0.07044594 -0.016772844 0.114055336 -0.030191118 0.046963964 -0.023481982 0.0536731
0.11740991 0.010063706 0.010063706 0.060382236 0.013418275 0.13418275 0.067091376 -0.02683655
0.0 -0.040254824 0.11070077 -0.016772844 0.13418275 0.07715508 -0.07715508 0.0067091375
0.10399163 -0.030191118 -0.057027668 0.0067091375 0.046963964 -0.020127412 -0.09728249 -0.13753732
0.057027668 -0.15095559 -0.09392793 -0.0033545687 -0.02683655 -0.0033545687 -0.23146524 -0.040254824
-0.023481982 -0.013418275 -0.14760102 -0.033545688 0.07380051 0.09392793 -0.13753732 -0.030191118
0.07044594 0.07380051 0.09728249 -0.043609392 -0.07044594 0.036900256 -0.033545688 0.067091376
0.013418275 -0.016772844 0.10399163 0.057027668 -0.020127412 -0.043609392 -0.023481982 0.0536731
-0.17443757 -0.12411904 -0.114055336 -0.11740991 -0.023481982 0.114055336 -0.05031853 0.090573356
-0.11740991 0.013418275 -0.08050965 0.07044594 0.14089188 0.05031853 -0.0033545687 -0.057027668
0.20462869 -0.0033545687 0.08386422 -0.1073462 0.023481982 -0.0536731 0.020127412 0.023481982
0.171083 -0.036900256 0.043609392 -0.060382236 0.09728249 -0.043609392 -0.030191118 0.036900256
0.11070077 0.24152894 -0.0536731 0.087218784 0.040254824 0.020127412 0.11740991 -0.063736804
0.02683655 -0.0536731 -0.08386422 0.13418275 0.030191118 -0.067091376 -0.016772844 0.12747361
-0.067091376 -0.12076447 -0.030191118 -0.16772844 0.18785585 0.087218784 -0.016772844 -0.0033545687
0.020127412 -0.0033545687 -0.057027668 -0.18785585 0.013418275 0.040254824 0.090573356 -0.023481982
0.010063706 0.010063706 -0.0536731 0.07380051 0.010063706 -0.010063706 -0.010063706 -0.023481982

model/output/MatMul i1 [50, 256] scale=0.010632302 zero_point=0
00000000: 08e6 fcfe fff7 db0c f5fb f9ed eee7 e90d
00000010: fb07 0a0e 060b ea0e 090d ebe8 04fa 04f8
00000020: fdf2 f50a 0def fdef defb f20c fff6 eaf8
00000030: 030e f60f f6f6 fb00 0802 000d f20c f2f6
00000040: e5ee 03ef ff00 0906 fef6 e6ec f603 f5f6
00000050: 06f2 06fe f60a 010a 0a05 f602 f0f3 06f9
00000060: 0afd efe9 0bee ebf9 0bcb 0505 0009 0ef4
00000070: f8f5 d102 0702 0408 0409 ff0e fb07 00ec
00000080: e1f8 f70b e8f4 0be7 fe0c e0ec f9fb e4fc
00000090: 07f7 fffa 0903 e9df 0802 0000 fe08 eeed
000000a0: 000c d3ef 0306 fa06 f8f3 0cde 0503 0b08
000000b0: 01f6 fb0c eef3 dae4 fbec 0e10 f7ed fae1
000000c0: 05f4 0ef9 0901 01f7 f513 f0fe 0208 0404
000000d0: d6fb f703 d7f7 f9f9 fefa 0dea faf0 f408
000000e0: fe00 dd04 d700 13ef edf5 f600 05ef 01fc
000000f0: fe0b 040b f400 e9e2 f5ec f20c f1f4 0403
0.08505841 -0.27643985 -0.042529207 -0.021264603 -0.010632302 -0.09569071 -0.39339516 0.12758762
-0.11695532 -0.05316151 -0.074426115 -0.20201373 -0.19138142 -0.26580754 -0.24454294 0.13821992
-0.05316151 0.074426115 0.10632302 0.14885223 0.06379381 0.11695532 -0.23391064 0.14885223
0.09569071 0.13821992 -0.22327833 -0.25517523 0.042529207 -0.06379381 0.042529207 -0.08505841
-0.031896904 -0.14885223 -0.11695532 0.10632302 0.13821992 -0.18074913 -0.031896904 -0.18074913
-0.36149827 -0.05316151 -0.14885223 0.12758762 -0.010632302 -0.10632302 -0.23391064 -0.08505841
0.031896904 0.14885223 -0.10632302 0.15948452 -0.10632302 -0.10632302 -0.05316151 0.0
0.08505841 0.021264603 0.0 0.13821992 -0.14885223 0.12758762 -0.14885223 -0.10632302
-0.28707215 -0.19138142 0.031896904 -0.18074913 -0.010632302 0.0 0.09569071 0.06379381
-0.021264603 -0.10632302 -0.27643985 -0.21264604 -0.10632302 0.031896904 -0.11695532 -0.10632302
0.06379381 -0.14885223 0.06379381 -0.021264603 -0.10632302 0.10632302 0.010632302 0.10632302
0.10632302 0.05316151 -0.10632302 0.021264603 -0.17011683 -0.13821992 0.06379381 -0.074426115
0.10632302 -0.031896904 -0.18074913 -0.24454294 0.11695532 -0.19138142 -0.22327833 -0.074426115
0.11695532 -0.56351197 0.05316151 0.05316151 0.0 0.09569071 0.14885223 -0.12758762
-0.08505841 -0.11695532 -0.4997182 0.021264603 0.074426115 0.021264603 0.042529207 0.08505841
0.042529207 0.09569071 -0.010632302 0.14885223 -0.05316151 0.074426115 0.0 -0.21264604
-0.32960135 -0.08505841 -0.09569071 0.11695532 -0.25517523 -0.12758762 0.11695532 -0.26580754
-0.021264603 0.12758762 -0.34023365 -0.21264604 -0.074426115 -0.05316151 -0.29770446 -0.042529207
0.074426115 -0.09569071 -0.010632302 -0.06379381 0.09569071 0.031896904 -0.24454294 -0.35086596
0.08505841 0.021264603 0.0 0.0 -0.021264603 0.08505841 -0.19138142 -0.20201373
0.0 0.12758762 -0.47845358 -0.18074913 0.031896904 0.06379381 -0.06379381 0.06379381
-0.08505841 -0.13821992 0.12758762 -0.36149827 0.05316151 0.031896904 0.11695532 0.08505841
0.010632302 -0.10632302 -0.05316151 0.12758762 -0.19138142 -0.13821992 -0.40402746 -0.29770446
-0.05316151 -0.21264604 0.14885223 0.17011683 -0.09569071 -0.20201373 -0.06379381 -0.32960135
0.05316151 -0.12758762 0.14885223 -0.074426115 0.09569071 0.010632302 0.010632302 -0.09569071
-0.11695532 0.20201373 -0.17011683 -0.021264603 0.021264603 0.08505841 0.042529207 0.042529207
-0.44655666 -0.05316151 -0.09569071 0.031896904 -0.43592438 -0.09569071 -0.074426115 -0.074426115
-0.021264603 -0.06379381 0.13821992 -0.23391064 -0.06379381 -0.17011683 -0.12758762 0.08505841
-0.021264603 0.0 -0.37213057 0.042529207 -0.43592438 0.0 0.20201373 -0.18074913
-0.20201373 -0.11695532 -0.10632302 0.0 0.05316151 -0.18074913 0.010632302 -0.042529207
-0.021264603 0.11695532 0.042529207 0.11695532 -0.12758762 0.0 -0.24454294 -0.31896904
-0.11695532 -0.21264604 -0.14885223 0.12758762 -0.15948452 -0.12758762 0.042529207 0.031896904

model/lstm_1/while/lstm_cell_5/BiasAdd/ReadVariableOp f4 [512]
00000000: 85e7 373d e751 383d 915b c63d cfac b8bc
00000010: 8a0a 003d 92df 4f3d d41a ba3c 91dc df3c
00000020: 805d c13c 26bd fd3c ee5f 01bc 086f 8ebc
00000030: 7a29 473d bb1d 253c 51b8 d03d 258f 1ebc
00000040: 3f14 7a3d 7ee7 60bc f2fe 9e3a f7ed a0bc
00000050: 0315 df3c 1f38 0abd 661a 2a3c 6dc2 4d3d
00000060: 9ee2 433c 68c4 1e3d 05e8 8d3d c815 3f3d
00000070: e90d 003c 964c e4bb 3a0a 103c e089 c43d
00000080: 3c06 e53d 904a 0bbd c700 893c 6dc9 3e3d
00000090: 2634 fc3c c3bf ee3b a2d3 39bc 8f1b 6f3d
000000a0: 839c 913b 2236 febc e521 753b fb17 7bbc
000000b0: 48a3 a43c 4670 233d 0d55 2e3c 6ab5 813d
000000c0: 79d5 eb3a 5994 4d3d 08ea a43b 2ab6 e53d
000000d0: 5961 fe3c e47f 2e3d 155c 463d 3514 4e3a
000000e0: c145 0c3d fe40 b3bb 5084 673c 68a1 783c
000000f0: ede3 403d df1d 443b 3692 afbb bdbc 7cbc
00000100: 8d84 f93c 07ea 673d ef75 2f3d 4fcd 333d
00000110: 293b 693d 39a6 593d b77e bf3d 4e98 ac3c
00000120: a0ce 863d d388 093d 077e ee3c 843c a2bb
00000130: 1138 f5bc e710 d3bc afd3 553d 922f bebc
00000140: 850c 8abc d820 333d bce0 a23c 50c8 b13d
00000150: d09b 32bb 9f06 27b9 2d3f 263d 513d eb3c
00000160: fb2c 123d a887 383c 482b 2e3e 2cbc 453d
00000170: 7574 74bd cad6 953d c768 073c 8407 cc3b
00000180: 65d3 443d f46a a13c 98c0 7a3c b731 a63d
00000190: 26d2 52bc 5e0f 823d 4189 4dba 18ae 4a3d
000001a0: 42d0 a3bb f979 9d3d 4e3d e03c 74c1 d73d
000001b0: 0eac bcbc e00b a53c 8bb0 29bd 1b92 2bbd
000001c0: bc04 0b3d 7017 22bd e881 f63d e8cc 493d
000001d0: 699d e33b 24fb 863d b7ab 5a3d 7928 4cbd
000001e0: 1a5e 5fbc 8b43 813d 3146 dd3c 1e8b 59bb
000001f0: 83c2 3f3b 8dfd ae3b 047f 873c 79ff 94bb
00000200: 0e94 8e3f 37e6 853f 6ad3 803f 25c5 833f
00000210: e08d 813f 2015 863f 3591 853f 07fc 873f
00000220: 7f7a 853f 6ede 833f ed69 853f 084e 723f
00000230: 9636 683f e229 853f 8817 8f3f b61c 823f
00000240: 70ee 823f 4657 7c3f 5068 8a3f 1c54 873f
00000250: 22b8 893f 2890 773f 6181 7d3f fc91 973f
00000260: 85fe 7b3f 7691 833f 3620 8d3f d4c9 823f
00000270: 60f3 813f 54e1 793f 44cd 883f 047a 8b3f
00000280: 6665 863f 2c7f 783f 7441 803f e823 883f
00000290: 1909 833f 8336 803f b36c 793f 98ad 743f
000002a0: 6a67 823f b602 803f 8a15 813f fca0 7c3f
000002b0: 3767 7d3f df88 893f b8f4 803f d534 8b3f
000002c0: ab81 7f3f 64b2 893f f0ee 7e3f 2cfa 943f
000002d0: 2711 863f 80f8 783f 8fa2 883f 936a 723f
000002e0: ba78 7f3f 4e8c 833f 8a3e 863f 987b 853f
000002f0: 17ad 893f 0389 823f 453d 823f 3dd0 753f
00000300: d4ae 853f becc 893f f230 863f b23d 8b3f
00000310: 1387 8c3f 0fce 893f de1d 8d3f cd2c 833f
00000320: 3ed6 853f 501f 883f 6b59 7a3f b307 813f
00000330: f3d3 6d3f 98ac 7d3f 43de 863f 0a76 853f
00000340: 52fc 7d3f d08c 873f 1d66 833f f6f0 863f
00000350: 3731 7f3f 61fa 833f ef5a 833f e670 833f
00000360: fec8 833f a25a 803f 9297 9b3f eb19 853f
00000370: 5f60 733f 6cd6 7d3f b298 803f e8a2 893f
00000380: 306e 843f b2b5 823f c5b2 833f 2fb4 873f
00000390: 1998 873f 0c2a 873f b63b 883f 5f50 8d3f
000003a0: 4425 823f 6c57 903f ffe5 863f 2121 8b3f
000003b0: 6593 803f a664 823f 4b6a 773f 0c0a 713f
000003c0: 178b 843f d084 783f d947 8b3f 3a30 793f
000003d0: 64fb 823f fe1a 873f 074e 823f fc0f 6e3f
000003e0: 4dc7 7d3f 91c9 8c3f 0b1d 893f 150f 7b3f
000003f0: e472 823f 448c 853f b7de 823f 6975 803f
0.04489853 0.044999983 0.09685434 -0.022543339 0.03126005 0.050750323 0.02271787 0.027326854
0.023604155 0.030973982 -0.007896407 -0.017386928 0.04862354 0.010077889 0.101914056 -0.009677683
0.061054464 -0.013727067 0.0012130423 -0.01964472 0.027231699 -0.033744927 0.01038227 0.050234247
0.011955885 0.038761526 0.0692902 0.04665163 0.007815816 -0.0069671376 0.008791501 0.0959661
0.1118283 -0.034006655 0.016724003 0.046578813 0.030786585 0.0072860434 -0.011341961 0.05837589
0.0044437065 -0.031031672 0.0037404236 -0.015325542 0.02009739 0.039901994 0.010640395 0.0633343
0.0017992697 0.050190303 0.0050327815 0.11216386 0.031052278 0.042602435 0.04842766 0.00078612874
0.03424621 -0.005470394 0.014130667 0.015175201 0.047092367 0.002992503 -0.005358006 -0.015425858
0.030458713 0.05661967 0.04283708 0.04389697 0.056941185 0.053137038 0.09350341 0.021068718
0.06582379 0.03357775 0.029112829 -0.0049510617 -0.029933961 -0.025764896 0.05220383 -0.023216043
-0.016851673 0.043732494 0.019882552 0.08680785 -0.0027253516 -0.00015928828 0.040587593 0.028715761
0.035687428 0.011262812 0.17008698 0.048275158 -0.059681375 0.073163584 0.008264727 0.006226482
0.048053164 0.01970432 0.015304707 0.08114951 -0.012867486 0.06350587 -0.0007840582 0.049482435
-0.0049991915 0.0768928 0.027372982 0.10534945 -0.02303126 0.020147264 -0.04142813 -0.041887384
0.033940062 -0.039573133 0.120364964 0.04926768 0.006946255 0.0659087 0.053386416 -0.049843285
-0.013633275 0.06311711 0.027011009 -0.0033194493 0.0029260225 0.005340284 0.016540058 -0.0045470563
1.1138933 1.0460881 1.0064518 1.0294539 1.0121422 1.0475197 1.0434939 1.0623788
1.0428008 1.0302255 1.0422951 0.94650316 0.9070829 1.0403407 1.1179056 1.0165012
1.0229015 0.9857067 1.0813084 1.0572543 1.0759318 0.9670434 0.9902554 1.1841426
0.9843524 1.0278766 1.1025455 1.0217843 1.0152397 0.9760945 1.0687642 1.0896611
1.0499694 0.9706905 1.0019975 1.0635958 1.0237151 1.0016636 0.97431487 0.95577383
1.018781 1.0000827 1.0084698 0.9868314 0.9898562 1.0744895 1.0074682 1.0875498
0.9980723 1.0757565 0.9958334 1.1638846 1.0473984 0.9725418 1.0674609 0.9469387
0.9979359 1.0277193 1.0487835 1.0428343 1.0755948 1.0198063 1.0174948 0.9602087
1.0443978 1.0765607 1.0483687 1.0878203 1.0978721 1.0766009 1.102474 1.0248047
1.0456007 1.0634556 0.9779269 1.0080475 0.92901534 0.9909148 1.0536579 1.0426648
0.99213135 1.0589848 1.0265538 1.0542285 0.9968447 1.0310785 1.0262126 1.0268829
1.0295713 1.0027659 1.215563 1.0398535 0.95068926 0.99155307 1.0046599 1.075284
1.0346127 1.0211699 1.0288931 1.0601863 1.0593292 1.0559707 1.0643222 1.1040152
1.0167623 1.1276679 1.0538939 1.0869485 1.0044981 1.0186965 0.96646565 0.94155955
1.0354947 0.97077656 1.0881301 0.9733921 1.0232968 1.0555112 1.0180062 0.9299314
0.99132234 1.0999013 1.0711988 0.9806989 1.0191312 1.0433431 1.0224217 1.0035831

model/lstm_1/while/lstm_cell_5/MatMul_11 i1 [512, 128] scale=0.0048123016 zero_point=0
00000000: f609 0804 0616 f60d e806 1b0b 0e04 1e02
00000010: 03fc 0efe e8f6 0809 ffe1 0b02 0d03 f90b
00000020: 0709 fa05 0407 09fa 06e4 06da fe02 f3fe
00000030: 060c f9cb 0e0e fa0b 330c d6ff f6f2 01fe
00000040: 04ff f211 17ef 1011 f8e1 20ff 01f5 17f8
00000050: e8f5 e1f5 381a 1825 0ef9 1dfb 0cfa 03fb
00000060: ee06 150c fa10 eefe 192c 040c fe02 02f7
00000070: f40a f6e6 1d12 0b11 0feb 1d04 12f1 10d9
00000080: 17eb 030e 101f 07f6 0f09 fef9 e6ff 0604
00000090: e7f2 06ed 0b04 fefb e815 fc03 f9fb edf7
000000a0: 0f04 0411 10f6 0bed 24f5 1aed f807 ea0d
000000b0: f0f8 0e01 f0f9 e7d8 ec15 e517 eeee cf1c
000000c0: fcfa 1000 fdff 1004 e5eb faef e804 f9fc
000000d0: 1818 f123 f7e6 ee19 0f0d e200 0502 0afd
000000e0: fed4 0ad7 1500 0dfa 0506 0cfa 1020 fd09
000000f0: f9ea 020c 080b 1322 e10d fd02 0ef7 e6fe
-0.048123017 0.043310713 0.038498413 0.019249206 0.028873809 0.105870634 -0.048123017 0.06255992
-0.115495235 0.028873809 0.12993215 0.052935317 0.067372225 0.019249206 0.14436905 0.009624603
0.014436904 -0.019249206 0.067372225 -0.009624603 -0.115495235 -0.048123017 0.038498413 0.043310713
-0.0048123016 -0.14918135 0.052935317 0.009624603 0.06255992 0.014436904 -0.033686113 0.052935317
0.033686113 0.043310713 -0.028873809 0.024061508 0.019249206 0.033686113 0.043310713 -0.028873809
0.028873809 -0.13474445 0.028873809 -0.18286747 -0.009624603 0.009624603 -0.06255992 -0.009624603
0.028873809 0.057747617 -0.033686113 -0.25505197 0.067372225 0.067372225 -0.028873809 0.052935317
0.24542738 0.057747617 -0.20211667 -0.0048123016 -0.048123017 -0.067372225 0.0048123016 -0.009624603
0.019249206 -0.0048123016 -0.067372225 0.081809126 0.110682935 -0.081809126 0.076996826 0.081809126
-0.038498413 -0.14918135 0.15399365 -0.0048123016 0.0048123016 -0.052935317 0.110682935 -0.038498413
-0.115495235 -0.052935317 -0.14918135 -0.052935317 0.2694889 0.12511984 0.115495235 0.17805515
0.067372225 -0.033686113 0.13955675 -0.024061508 0.057747617 -0.028873809 0.014436904 -0.024061508
-0.086621426 0.028873809 0.101058334 0.057747617 -0.028873809 0.076996826 -0.086621426 -0.009624603
0.12030754 0.21174127 0.019249206 0.057747617 -0.009624603 0.009624603 0.009624603 -0.043310713
-0.057747617 0.048123017 -0.048123017 -0.12511984 0.13955675 0.086621426 0.052935317 0.081809126
0.072184525 -0.101058334 0.13955675 0.019249206 0.086621426 -0.072184525 0.076996826 -0.18767977
0.110682935 -0.101058334 0.014436904 0.067372225 0.076996826 0.14918135 0.033686113 -0.048123017
0.072184525 0.043310713 -0.009624603 -0.033686113 -0.12511984 -0.0048123016 0.028873809 0.019249206
-0.12030754 -0.067372225 0.028873809 -0.09143373 0.052935317 0.019249206 -0.009624603 -0.024061508
-0.115495235 0.101058334 -0.019249206 0.014436904 -0.033686113 -0.024061508 -0.09143373 -0.043310713
0.072184525 0.019249206 0.019249206 0.081809126 0.076996826 -0.048123017 0.052935317 -0.09143373
0.17324285 -0.052935317 0.12511984 -0.09143373 -0.038498413 0.033686113 -0.105870634 0.06255992
-0.076996826 -0.038498413 0.067372225 0.0048123016 -0.076996826 -0.033686113 -0.12030754 -0.19249207
-0.096246034 0.101058334 -0.12993215 0.110682935 -0.086621426 -0.086621426 -0.23580278 0.13474445
-0.019249206 -0.028873809 0.076996826 0.0 -0.014436904 -0.0048123016 0.076996826 0.019249206
-0.12993215 -0.101058334 -0.028873809 -0.081809126 -0.115495235 0.019249206 -0.033686113 -0.019249206
0.115495235 0.115495235 -0.072184525 0.16843055 -0.043310713 -0.12511984 -0.086621426 0.12030754
0.072184525 0.06255992 -0.14436905 0.0 0.024061508 0.009624603 0.048123017 -0.014436904
-0.009624603 -0.21174127 0.048123017 -0.19730437 0.101058334 0.0 0.06255992 -0.028873809
0.024061508 0.028873809 0.057747617 -0.028873809 0.076996826 0.15399365 -0.014436904 0.043310713
-0.033686113 -0.105870634 0.009624603 0.057747617 0.038498413 0.052935317 0.09143373 0.16361825
-0.14918135 0.06255992 -0.014436904 0.009624603 0.067372225 -0.043310713 -0.12511984 -0.009624603

model/lstm_1/while/lstm_cell_5/MatMul i1 [512, 174] scale=0.009854947 zero_point=0
00000000: fc06 0efb ff09 07f7 0700 0006 f102 05fe
00000010: fd0c 01f6 fcf1 fa07 0702 0704 fc00 0304
00000020: fe06 0301 f9ff fefb 060d 02f8 05f6 fb05
00000030: 13ff f70f ff2a 09fe 1801 0a12 0808 1305
00000040: 01d4 0e05 e909 0efe fc00 fa0c 04e8 0afe
00000050: fd09 01fc f7fb 0202 fdf1 040b ff0d 08f9
00000060: 05fd f10e fdfe 0d0c fefb 03fd fcfb 05eb
00000070: fd07 edfb 24fb 001e fe08 0d0b 06ff fd07
00000080: e109 0af6 16fc fd12 0805 ff02 e803 04f3
00000090: 0b08 f10b 06f4 0405 f108 0bfc 05fe fc09
000000a0: fd02 0ffa ec08 05ff 04ff fb0c 03fb 0001
000000b0: 0300 f605 f9fa fcf9 09fb ff00 faf8 f8ff
000000c0: 01fe f803 06f6 01fa 09f6 f9f9 fbfc 0805
000000d0: fef3 faf7 03fd faf8 fcf6 fe00 f4fc 0909
000000e0: 04ff 0248 fa08 22f9 fdfc fcfc f002 0325
000000f0: 03fe f7fb 07ea f10d f705 0808 fe03 0100
-0.03941979 0.059129685 0.13796926 -0.049274735 -0.009854947 0.08869453 0.06898463 -0.08869453
0.06898463 0.0 0.0 0.059129685 -0.14782421 0.019709894 0.049274735 -0.019709894
-0.029564843 0.11825937 0.009854947 -0.09854947 -0.03941979 -0.14782421 -0.059129685 0.06898463
0.06898463 0.019709894 0.06898463 0.03941979 -0.03941979 0.0 0.029564843 0.03941979
-0.019709894 0.059129685 0.029564843 0.009854947 -0.06898463 -0.009854947 -0.019709894 -0.049274735
0.059129685 0.12811431 0.019709894 -0.07883958 0.049274735 -0.09854947 -0.049274735 0.049274735
0.187244 -0.009854947 -0.08869453 0.14782421 -0.009854947 0.4139078 0.08869453 -0.019709894
0.23651874 0.009854947 0.09854947 0.17738906 0.07883958 0.07883958 0.187244 0.049274735
0.009854947 -0.43361768 0.13796926 0.049274735 -0.22666378 0.08869453 0.13796926 -0.019709894
-0.03941979 0.0 -0.059129685 0.11825937 0.03941979 -0.23651874 0.09854947 -0.019709894
-0.029564843 0.08869453 0.009854947 -0.03941979 -0.08869453 -0.049274735 0.019709894 0.019709894
-0.029564843 -0.14782421 0.03941979 0.10840442 -0.009854947 0.12811431 0.07883958 -0.06898463
0.049274735 -0.029564843 -0.14782421 0.13796926 -0.029564843 -0.019709894 0.12811431 0.11825937
-0.019709894 -0.049274735 0.029564843 -0.029564843 -0.03941979 -0.049274735 0.049274735 -0.2069539
-0.029564843 0.06898463 -0.187244 -0.049274735 0.3547781 -0.049274735 0.0 0.29564843
-0.019709894 0.07883958 0.12811431 0.10840442 0.059129685 -0.009854947 -0.029564843 0.06898463
-0.30550337 0.08869453 0.09854947 -0.09854947 0.21680884 -0.03941979 -0.029564843 0.17738906
0.07883958 0.049274735 -0.009854947 0.019709894 -0.23651874 0.029564843 0.03941979 -0.12811431
0.10840442 0.07883958 -0.14782421 0.10840442 0.059129685 -0.11825937 0.03941979 0.049274735
-0.14782421 0.07883958 0.10840442 -0.03941979 0.049274735 -0.019709894 -0.03941979 0.08869453
-0.029564843 0.019709894 0.14782421 -0.059129685 -0.19709894 0.07883958 0.049274735 -0.009854947
0.03941979 -0.009854947 -0.049274735 0.11825937 0.029564843 -0.049274735 0.0 0.009854947
0.029564843 0.0 -0.09854947 0.049274735 -0.06898463 -0.059129685 -0.03941979 -0.06898463
0.08869453 -0.049274735 -0.009854947 0.0 -0.059129685 -0.07883958 -0.07883958 -0.009854947
0.009854947 -0.019709894 -0.07883958 0.029564843 0.059129685 -0.09854947 0.009854947 -0.059129685
0.08869453 -0.09854947 -0.06898463 -0.06898463 -0.049274735 -0.03941979 0.07883958 0.049274735
-0.019709894 -0.12811431 -0.059129685 -0.08869453 0.029564843 -0.029564843 -0.059129685 -0.07883958
-0.03941979 -0.09854947 -0.019709894 0.0 -0.11825937 -0.03941979 0.08869453 0.08869453
0.03941979 -0.009854947 0.019709894 0.7095562 -0.059129685 0.07883958 0.3350682 -0.06898463
-0.029564843 -0.03941979 -0.03941979 -0.03941979 -0.15767916 0.019709894 0.029564843 0.36463305
0.029564843 -0.019709894 -0.08869453 -0.049274735 0.06898463 -0.21680884 -0.14782421 0.12811431
-0.08869453 0.049274735 0.07883958 0.07883958 -0.019709894 0.029564843 0.009854947 0.0
